hw1/model.pth (torch, 3916 bytes, 2 tensors)

output_layer.weight f4 [2, 300]
000000 35 50 2a 40 d2 e1 c4 3f 1d db bf 40 70 e7 84 be
       2.6611454 1.5381415 5.995497 -0.25957823
000010 73 05 4d bf 74 24 1d 41 9b af cb 3f 0f 4c 67 be
       -0.8008644 9.8214 1.5912966 -0.22587608
000020 ca 9a 1c 3f 39 49 3f be 8d b5 db be 91 2c f9 3f
       0.6117369 -0.18680276 -0.4291195 1.9466726
000030 b9 d3 16 40 a4 4c a2 3f 11 aa 80 bf c3 5b 12 c0
       2.3566725 1.2679639 -1.00519 -2.2868507
000040 fc 54 06 40 2f 69 41 c0 cc 99 a4 3f d3 ff 1c c0
       2.098937 -3.022045 1.2859435 -2.4531143
000050 20 e6 9e 3e 0e 4a 4e bf b4 16 50 c0 b0 a9 e3 c0
       0.31034946 -0.8058175 -3.2513857 -7.114464
000060 ce 71 2e 40 1a 8b 78 3f 8a 9b 08 bf 30 4a e6 3d
       2.725696 0.9708725 -0.53362334 0.11244619
000070 88 ca ca bf 9a 7c 02 40 35 80 f2 be 65 51 5c bf
       -1.5843058 2.038855 -0.4736344 -0.860617
000080 9f e6 0e bf 71 ad 8e c0 ed a8 85 3e 01 76 06 c0
       -0.5582065 -4.458672 0.26105443 -2.1009524
000090 c7 cd 8f 40 66 8d f9 40 cf f6 3d 3f 2c 36 b8 3f
       4.4938693 7.7985106 0.74204725 1.4391532
0000a0 5d 6a 81 3e 50 b7 13 40 1c 22 64 3f e5 d0 30 c1
       0.2527646 2.3080635 0.89114547 -11.051
0000b0 05 20 27 40 3c 7e be c0 3e 98 1d c0 ca 1d 71 40
       2.6113293 -5.9529095 -2.4624171 3.7674432
0000c0 c2 5f 80 c0 0a f5 30 40 68 12 11 c0 7f 21 80 c0
       -4.011689 2.764956 -2.2667484 -4.004089
0000d0 ba f2 91 3f 87 26 c9 3c 97 fb 9c 3d 6c 74 c9 bf
       1.1402199 0.024554504 0.076651745 -1.5738654
0000e0 cf 7e 79 3b f0 9b 22 c0 a0 29 5a 40 98 df 45 c0
       0.0038069969 -2.5407677 3.4087906 -3.091772
0000f0 79 3e c1 40 9a 9e 74 bf 42 65 d0 3f 4a db 15 c0
       6.038876 -0.95554507 1.6280901 -2.3415093
000100 47 9c 08 40 6f e8 cc c0 5c f5 87 3f c8 4b 67 40
       2.1345384 -6.4033732 1.0621753 3.6140003
000110 2f 2f 27 bf 1b 92 7e c0 c2 ce d6 bd 95 56 cb bf
       -0.6530637 -3.9776676 -0.10488655 -1.5885798
000120 10 c7 8a c0 c4 72 0f 3f 56 f8 21 c0 a3 c3 23 40
       -4.3367996 0.56034493 -2.5307822 2.5588157
000130 81 3c 65 c0 b0 b9 31 c0 89 bf ea 3f 1b 81 02 c0
       -3.5818179 -2.7769585 1.8339702 -2.03913
000140 a8 b3 7e 40 04 31 13 bf 2d b7 91 c0 32 01 d1 bf
       3.9797153 -0.57496667 -4.5536103 -1.632849
000150 c5 4b fc bf 1f c1 9d 3f 1c 7f 83 40 10 93 a8 3f
       -1.9710623 1.2324561 4.1092663 1.316988
000160 82 52 82 40 24 b8 3e 40 3d a2 ae bf dd 39 a4 bf
       4.0725718 2.979989 -1.3643261 -1.2830158
000170 84 d5 05 c0 8c f8 6c c0 77 03 6f 40 08 0e 0e c0
       -2.091157 -3.70267 3.7345865 -2.2196064
000180 14 ff 1d 40 a4 d1 b1 40 ed f1 92 3f 29 de 38 41
       2.4686937 5.556841 1.148008 11.554238
000190 5e 74 9a 40 3a 02 17 bf 8b da 7a 40 f4 39 9d bf
       4.826705 -0.5898777 3.9195888 -1.2283311
0001a0 89 1e 88 40 7c 2f 36 bf 06 e2 58 3f f6 cd b0 bf
       4.2537274 -0.71166205 0.84719884 -1.3812854
0001b0 32 09 4f 40 cf ef 35 40 82 31 01 c0 9e 1d 84 c0
       3.2349362 2.8427618 -2.0186467 -4.1286154
0001c0 32 f2 31 40 f0 04 45 c0 34 aa d4 bd 3a 2b 8f c0
       2.7804074 -3.0784264 -0.10384026 -4.4740267
0001d0 c8 f0 d8 40 b3 c2 0b 40 12 b6 db 3f 23 b4 d7 3f
       6.7793922 2.1837585 1.7164938 1.6851848
0001e0 8b 06 17 3f b9 e9 d3 c0 08 75 14 bf 3b 07 96 bf
       0.5899436 -6.6222806 -0.57991076 -1.1720957
0001f0 fc de 53 be 9a 58 32 bf 52 6b 26 40 76 71 2e c0
       -0.2069053 -0.69666445 2.6003003 -2.725675
000200 7c b2 f3 3f ca e7 5a bf 9a f0 44 c0 ff b5 40 c0
       1.9038844 -0.8550993 -3.0771852 -3.0111082
000210 13 c5 d1 3f 7a 98 b8 3f 18 86 85 bf 4a d4 4d 3d
       1.6388267 1.4421532 -1.0431547 0.050251283
000220 d4 da d4 3f b2 9d 81 c0 b7 f8 df be 74 39 0a c1
       1.6629281 -4.0505 -0.43744442 -8.639027
000230 5e c5 dc 3f 89 2b 38 c0 77 8b 15 40 ea 13 bc 3f
       1.7247732 -2.8776572 2.3366373 1.4693577
000240 93 4b a4 40 2e f0 27 c0 db 5c 2c c0 a0 4d c9 bf
       5.1342254 -2.6240344 -2.6931674 -1.5726814
000250 93 3d a5 3e e3 55 b6 3f ad 5c a7 bf 5b 1d 9f c0
       0.3227354 1.424496 -1.3075157 -4.9723334
000260 ac fe 90 3f 2e 9b 96 40 6a 35 ec 3f 83 b6 d5 3f
       1.132772 4.706443 1.8453801 1.6696323
000270 54 4b 8f bf f2 52 33 c0 cb 1e 05 40 6f 3d c7 3f
       -1.1194863 -2.8019376 2.0800045 1.5565623
000280 87 ee 24 c0 f6 cb 43 bf 7e 88 62 40 99 1c 1e bf
       -2.5770586 -0.76483095 3.5395808 -0.61762387
000290 0c 56 19 bf a0 51 28 40 d7 9f a2 3f dd d7 5f c0
       -0.5989692 2.629982 1.2705029 -3.4975502
0002a0 8d be 39 40 73 b4 df c0 72 17 5d 3f a2 41 88 bf
       2.9022553 -6.9907775 0.863639 -1.064503
0002b0 dc a2 60 c0 43 d0 7d 3e 32 f2 5e 3f a3 f8 81 3f
       -3.5099401 0.24786477 0.8708831 1.0154003
0002c0 5f 92 46 40 da 51 69 c0 8a 69 e6 40 f0 8c ad 40
       3.1026838 -3.6456208 7.200383 5.4234543
0002d0 8d 51 2f 40 24 2c 2c c0 f2 75 62 40 3c bd 2d 41
       2.7393525 -2.6901941 3.5384488 10.8587
0002e0 26 37 cd bf a2 b4 d5 40 aa f8 48 bf a6 98 47 3f
       -1.6032455 6.6783 -0.7850443 0.779673
0002f0 03 9a ac 3f c9 6d c8 bf e5 98 a0 bd fb 6d f1 c0
       1.3484501 -1.5658504 -0.07841662 -7.5446754
000300 dd 87 56 c0 bd 70 05 41 73 a3 b1 3f 85 14 8f 40
       -3.3520424 8.340024 1.3878006 4.471255
000310 16 f9 a7 3f 6a e2 5a 40 32 8a f6 3f cd ca 65 be
       1.312289 3.4200692 1.9260924 -0.22440644
000320 68 4d 03 c0 8c c3 a8 bf 11 3d f1 bf e2 63 06 c0
       -2.0515995 -1.3184676 -1.8846761 -2.0998464
000330 94 45 4b 3e d4 2a 5d 40 25 3e a3 be 48 31 4a bd
       0.1985076 3.455739 -0.3188335 -0.049363405
000340 b5 55 b3 c0 eb 40 4d c0 5e d0 1c 40 f2 26 85 c0
       -5.6042123 -3.2070873 2.4502177 -4.161004
000350 8d a1 02 41 7b bb cb c0 26 f5 a0 3f 7e c0 99 40
       8.164441 -6.366636 1.2574813 4.8047476
000360 f7 7c 53 3e cc f5 74 bf ea b4 99 3f 05 74 01 c0
       0.20653139 -0.95687556 1.2008336 -2.0227063
000370 ec 8f c5 c0 71 9c f1 bf 4c c9 40 c0 a5 4d ae 40
       -6.1738186 -1.8875867 -3.0122862 5.446978
000380 73 48 fa 3e 4a f0 1c bf c2 67 f5 3f 13 3a 5a bf
       0.488834 -0.6130415 1.9172289 -0.85244864
000390 b8 6a 42 40 d3 5d 34 40 b5 59 a3 40 fa c4 88 be
       3.0377636 2.8182266 5.1047006 -0.2671278
0003a0 ba ba d4 bf f6 64 42 c0 d8 a3 c0 be fc 7c 13 c0
       -1.6619484 -3.0374122 -0.37625003 -2.3045034
0003b0 7b bc 90 40 08 d9 f7 3f d6 fb 00 40 4e 84 22 c0
       4.523008 1.9363108 2.0153708 -2.5393252
0003c0 42 ae 98 be 82 81 fd 40 d9 6f 72 40 cb e1 4d c0
       -0.29820448 7.922059 3.7880766 -3.2169063
0003d0 24 df b5 3e 9e e2 e7 c0 1d b7 d4 40 ae 1e 3a 40
       0.35521805 -7.246413 6.6473527 2.9081225
0003e0 8d 3b 76 c0 7d 18 15 40 17 43 fc 3d a4 5b 59 c0
       -3.8473847 2.3296196 0.12317484 -3.3962183
0003f0 4f 00 54 bf c1 11 04 c0 b6 54 f8 bf 09 a8 10 c0
       -0.8281297 -2.0635836 -1.9400852 -2.260256

output_layer.bias f4 [2]
000000 29 4e 81 be f5 3d 7b 3e
       -0.25254944 0.24535353
